test_data/tools/ssd_mobilenet_v1_coco_quant_postprocess_head_layers.tflite (tflite, 15928 bytes, 1 tensors)

anchors u1 [1917, 4] scale=0.0064530605 zero_point=0
000000 04 04 0f 0f 04 04 16 2c 04 04 2c 16 04 0c 0f 0f
       0.025812242 0.025812242 0.09679591 0.09679591 0.025812242 0.025812242 0.14196733 0.28393465 0.025812242 0.025812242 0.28393465 0.14196733 0.025812242 0.07743673 0.09679591 0.09679591
000010 04 0c 16 2c 04 0c 2c 16 04 14 0f 0f 04 14 16 2c
       0.025812242 0.07743673 0.14196733 0.28393465 0.025812242 0.07743673 0.28393465 0.14196733 0.025812242 0.1290612 0.09679591 0.09679591 0.025812242 0.1290612 0.14196733 0.28393465
000020 04 14 2c 16 04 1d 0f 0f 04 1d 16 2c 04 1d 2c 16
       0.025812242 0.1290612 0.28393465 0.14196733 0.025812242 0.18713875 0.09679591 0.09679591 0.025812242 0.18713875 0.14196733 0.28393465 0.025812242 0.18713875 0.28393465 0.14196733
000030 04 25 0f 0f 04 25 16 2c 04 25 2c 16 04 2d 0f 0f
       0.025812242 0.23876324 0.09679591 0.09679591 0.025812242 0.23876324 0.14196733 0.28393465 0.025812242 0.23876324 0.28393465 0.14196733 0.025812242 0.29038772 0.09679591 0.09679591
000040 04 2d 16 2c 04 2d 2c 16 04 35 0f 0f 04 35 16 2c
       0.025812242 0.29038772 0.14196733 0.28393465 0.025812242 0.29038772 0.28393465 0.14196733 0.025812242 0.3420122 0.09679591 0.09679591 0.025812242 0.3420122 0.14196733 0.28393465
000050 04 35 2c 16 04 3d 0f 0f 04 3d 16 2c 04 3d 2c 16
       0.025812242 0.3420122 0.28393465 0.14196733 0.025812242 0.3936367 0.09679591 0.09679591 0.025812242 0.3936367 0.14196733 0.28393465 0.025812242 0.3936367 0.28393465 0.14196733
000060 04 45 0f 0f 04 45 16 2c 04 45 2c 16 04 4d 0f 0f
       0.025812242 0.44526118 0.09679591 0.09679591 0.025812242 0.44526118 0.14196733 0.28393465 0.025812242 0.44526118 0.28393465 0.14196733 0.025812242 0.49688566 0.09679591 0.09679591
000070 04 4d 16 2c 04 4d 2c 16 04 56 0f 0f 04 56 16 2c
       0.025812242 0.49688566 0.14196733 0.28393465 0.025812242 0.49688566 0.28393465 0.14196733 0.025812242 0.55496323 0.09679591 0.09679591 0.025812242 0.55496323 0.14196733 0.28393465
000080 04 56 2c 16 04 5e 0f 0f 04 5e 16 2c 04 5e 2c 16
       0.025812242 0.55496323 0.28393465 0.14196733 0.025812242 0.6065877 0.09679591 0.09679591 0.025812242 0.6065877 0.14196733 0.28393465 0.025812242 0.6065877 0.28393465 0.14196733
000090 04 66 0f 0f 04 66 16 2c 04 66 2c 16 04 6e 0f 0f
       0.025812242 0.6582122 0.09679591 0.09679591 0.025812242 0.6582122 0.14196733 0.28393465 0.025812242 0.6582122 0.28393465 0.14196733 0.025812242 0.70983666 0.09679591 0.09679591
0000a0 04 6e 16 2c 04 6e 2c 16 04 76 0f 0f 04 76 16 2c
       0.025812242 0.70983666 0.14196733 0.28393465 0.025812242 0.70983666 0.28393465 0.14196733 0.025812242 0.76146114 0.09679591 0.09679591 0.025812242 0.76146114 0.14196733 0.28393465
0000b0 04 76 2c 16 04 7e 0f 0f 04 7e 16 2c 04 7e 2c 16
       0.025812242 0.76146114 0.28393465 0.14196733 0.025812242 0.8130856 0.09679591 0.09679591 0.025812242 0.8130856 0.14196733 0.28393465 0.025812242 0.8130856 0.28393465 0.14196733
0000c0 04 87 0f 0f 04 87 16 2c 04 87 2c 16 04 8f 0f 0f
       0.025812242 0.8711632 0.09679591 0.09679591 0.025812242 0.8711632 0.14196733 0.28393465 0.025812242 0.8711632 0.28393465 0.14196733 0.025812242 0.92278767 0.09679591 0.09679591
0000d0 04 8f 16 2c 04 8f 2c 16 04 97 0f 0f 04 97 16 2c
       0.025812242 0.92278767 0.14196733 0.28393465 0.025812242 0.92278767 0.28393465 0.14196733 0.025812242 0.97441214 0.09679591 0.09679591 0.025812242 0.97441214 0.14196733 0.28393465
0000e0 04 97 2c 16 0c 04 0f 0f 0c 04 16 2c 0c 04 2c 16
       0.025812242 0.97441214 0.28393465 0.14196733 0.07743673 0.025812242 0.09679591 0.09679591 0.07743673 0.025812242 0.14196733 0.28393465 0.07743673 0.025812242 0.28393465 0.14196733
0000f0 0c 0c 0f 0f 0c 0c 16 2c 0c 0c 2c 16 0c 14 0f 0f
       0.07743673 0.07743673 0.09679591 0.09679591 0.07743673 0.07743673 0.14196733 0.28393465 0.07743673 0.07743673 0.28393465 0.14196733 0.07743673 0.1290612 0.09679591 0.09679591
