test_data/deeplabv3_mnv2_dm05_pascal_quant.tflite (tflite, 751064 bytes, 55 tensors)

MobilenetV2/Conv/weights_quant/FakeQuantWithMinMaxVars u1 [16, 3, 3, 3] scale=0.07726895 zero_point=117
000000 78 6b 7c 79 6b 7b 77 6c 7c 79 66 7a 7c 69 7a 7a
       0.23180684 -0.7726895 0.54088265 0.3090758 -0.7726895 0.4636137 0.1545379 -0.69542056 0.54088265 0.3090758 -1.1590343 0.38634476 0.54088265 -0.9272274 0.38634476 0.38634476
000010 6c 78 77 69 7e 7a 6b 7c 7a 6c 79 82 34 74 91 57
       -0.69542056 0.23180684 0.1545379 -0.9272274 0.69542056 0.38634476 -0.7726895 0.54088265 0.38634476 -0.69542056 0.3090758 1.0044963 -5.022482 -0.07726895 2.1635306 -2.3180685
000020 8d 8f 5a 90 97 5f 88 87 58 a9 61 33 a3 8a 4e a6
       1.8544548 2.0089927 -2.0862617 2.0862617 2.6271443 -1.699917 1.4681101 1.3908411 -2.2407997 4.0179853 -1.545379 -5.0997505 3.5543718 1.622648 -3.013489 3.7861786
000030 4a 28 d7 01 14 ff 75 75 75 75 75 75 75 75 75 75
       -3.3225648 -5.9497094 7.572357 -8.963199 -7.495088 10.6631155 0.0 0.0 0.0 0.0 0.0 0.0 0.0 0.0 0.0 0.0
000040 75 75 75 75 75 75 75 75 75 75 75 75 75 75 75 75
       0.0 0.0 0.0 0.0 0.0 0.0 0.0 0.0 0.0 0.0 0.0 0.0 0.0 0.0 0.0 0.0
000050 75 78 6d 7a 79 6b 7a 78 6d 78 78 6d 79 79 6c 7a
       0.0 0.23180684 -0.6181516 0.38634476 0.3090758 -0.7726895 0.38634476 0.23180684 -0.6181516 0.23180684 0.23180684 -0.6181516 0.3090758 0.3090758 -0.69542056 0.38634476
000060 79 6f 7a 78 6e 79 78 6d 79 78 6f 78 b9 59 5c 93
       0.3090758 -0.4636137 0.38634476 0.23180684 -0.54088265 0.3090758 0.23180684 -0.6181516 0.3090758 0.23180684 -0.4636137 0.23180684 5.2542887 -2.1635306 -1.9317237 2.3180685
000070 5b 70 82 59 7a 9c 59 72 85 5e 7c 7c 64 83 85 5e
       -2.0089927 -0.38634476 1.0044963 -2.1635306 0.38634476 3.013489 -2.1635306 -0.23180684 1.2363032 -1.7771859 0.54088265 0.54088265 -1.3135722 1.0817653 1.2363032 -1.7771859
000080 79 74 6a 83 74 5f 83 66 84 74 6c 7f 73 75 7b 72
       0.3090758 -0.07726895 -0.8499585 1.0817653 -0.07726895 -1.699917 1.0817653 -1.1590343 1.1590343 -0.07726895 -0.69542056 0.7726895 -0.1545379 0.0 0.4636137 -0.23180684
000090 66 7f 76 6d 7c 75 74 78 72 70 7b 75 71 79 76 73
       -1.1590343 0.7726895 0.07726895 -0.6181516 0.54088265 0.0 -0.07726895 0.23180684 -0.23180684 -0.38634476 0.4636137 0.0 -0.3090758 0.3090758 0.07726895 -0.1545379
0000a0 7a 75 73 74 77 71 76 78 72 77 77 71 75 78 6f 77
       0.38634476 0.0 -0.1545379 -0.07726895 0.1545379 -0.3090758 0.07726895 0.23180684 -0.23180684 0.1545379 0.1545379 -0.3090758 0.0 0.23180684 -0.4636137 0.1545379
0000b0 7a 70 77 77 70 76 79 6e 77 7a 6f 77 79 75 75 75
       0.38634476 -0.38634476 0.1545379 0.1545379 -0.38634476 0.07726895 0.3090758 -0.54088265 0.1545379 0.38634476 -0.4636137 0.1545379 0.3090758 0.0 0.0 0.0
0000c0 75 75 75 75 75 75 75 75 75 75 75 75 75 75 75 75
       0.0 0.0 0.0 0.0 0.0 0.0 0.0 0.0 0.0 0.0 0.0 0.0 0.0 0.0 0.0 0.0
0000d0 75 75 75 75 75 75 75 75 81 81 7d 71 6c 6c 81 82
       0.0 0.0 0.0 0.0 0.0 0.0 0.0 0.0 0.9272274 0.9272274 0.6181516 -0.3090758 -0.69542056 -0.69542056 0.9272274 1.0044963
0000e0 7c 7e 7c 75 54 50 63 6e 71 76 7b 7c 7a 70 75 75
       0.54088265 0.69542056 0.54088265 0.0 -2.5498753 -2.858951 -1.3908411 -0.54088265 -0.3090758 0.07726895 0.4636137 0.54088265 0.38634476 -0.38634476 0.0 0.0
0000f0 79 7b 76 94 a4 8a 78 83 78 78 81 88 99 ad 8c 82
       0.3090758 0.4636137 0.07726895 2.3953376 3.6316407 1.622648 0.23180684 1.0817653 0.23180684 0.23180684 0.9272274 1.4681101 2.7816823 4.327061 1.7771859 1.0044963

MobilenetV2/expanded_conv/depthwise/weights_quant/FakeQuantWithMinMaxVars u1 [1, 3, 3, 16] scale=0.06414083 zero_point=185
000000 b8 b6 af b6 bb b9 bb 01 b7 bd ba b9 8d c1 88 b9
       -0.06414083 -0.19242248 -0.64140826 -0.19242248 0.12828165 0.0 0.12828165 -11.801912 -0.12828165 0.2565633 0.06414083 0.0 -2.8221965 0.5131266 -3.1429005 0.0
000010 b4 b9 b7 b9 b8 b8 b3 74 bb b8 b9 b8 d2 c9 81 b9
       -0.32070413 0.0 -0.12828165 0.0 -0.06414083 -0.06414083 -0.38484496 -4.425717 0.12828165 -0.06414083 0.0 -0.06414083 1.6035206 1.0262532 -3.5918863 0.0
000020 bc b9 ba b7 b9 bb bc 2e b9 b9 b9 b8 cd b8 c2 b9
       0.19242248 0.0 0.06414083 -0.12828165 0.0 0.12828165 0.19242248 -8.915575 0.0 0.0 0.0 -0.06414083 1.2828165 -0.06414083 0.5772674 0.0
000030 b4 b9 ab ac b7 bd aa 8f a6 b8 b9 b7 63 bb e8 d2
       -0.32070413 0.0 -0.8979716 -0.8338307 -0.12828165 0.2565633 -0.9621124 -2.6939147 -1.2186757 -0.06414083 0.0 -0.12828165 -5.516111 0.12828165 3.0146189 1.6035206
000040 a6 b9 b7 ab b3 e5 a0 c2 ba b7 a4 b7 c8 cf d6 b7
       -1.2186757 0.0 -0.12828165 -0.8979716 -0.38484496 2.8221965 -1.6035206 0.5772674 0.06414083 -0.12828165 -1.3469573 -0.12828165 0.9621124 1.4110982 1.8600839 -0.12828165
000050 b8 b9 ac ba bb b2 af c2 b9 b9 be b7 ff b6 b9 b8
       -0.06414083 0.0 -0.8338307 0.06414083 0.12828165 -0.4489858 -0.64140826 0.5772674 0.0 0.0 0.32070413 -0.12828165 4.4898577 -0.19242248 0.0 -0.06414083
000060 bf b9 b4 bf ba b4 c7 50 ba b9 bb b8 c4 af be b7
       0.38484496 0.0 -0.32070413 0.38484496 0.06414083 -0.32070413 0.8979716 -6.734787 0.06414083 0.0 0.12828165 -0.06414083 0.7055491 -0.64140826 0.32070413 -0.12828165
000070 c5 b9 b9 c0 b9 a0 c9 84 ba b9 be b7 be a7 d1 b8
       0.7696899 0.0 0.0 0.4489858 0.0 -1.6035206 1.0262532 -3.399464 0.06414083 0.0 0.32070413 -0.12828165 0.32070413 -1.1545348 1.5393798 -0.06414083
000080 bc b9 b2 b8 b8 b9 c2 b7 b9 b9 b7 b7 aa b4 b0 b9
       0.19242248 0.0 -0.4489858 -0.06414083 -0.06414083 0.0 0.5772674 -0.12828165 0.0 0.0 -0.12828165 -0.12828165 -0.9621124 -0.32070413 -0.5772674 0.0

MobilenetV2/expanded_conv/project/weights_quant/FakeQuantWithMinMaxVars u1 [8, 1, 1, 16] scale=0.062492773 zero_point=133
000000 8a 92 85 82 99 87 8a 85 24 63 01 85 8b 86 8e b0
       0.31246388 0.81240606 0.0 -0.18747832 1.2498555 0.124985546 0.31246388 0.0 -6.061799 -2.1247542 -8.249046 0.0 0.37495664 0.062492773 0.562435 2.6871893
000010 7d 7b 85 82 7a 7b 8b 85 72 9a ff 85 85 85 88 e6
       -0.49994218 -0.62492776 0.0 -0.18747832 -0.6874205 -0.62492776 0.37495664 0.0 -1.1873627 1.3123482 7.6241183 0.0 0.0 0.0 0.18747832 6.061799
000020 84 70 85 66 5f 63 af 85 95 75 66 85 88 68 80 9b
       -0.062492773 -1.3123482 0.0 -1.937276 -2.3747253 -2.1247542 2.6246965 0.0 0.99988437 -0.99988437 -1.937276 0.0 0.18747832 -1.8122904 -0.31246388 1.374841
000030 3c 7c 85 45 7b a3 93 85 82 82 73 85 84 8a 7e 7f
       -4.5619726 -0.562435 0.0 -3.9995375 -0.62492776 1.8747832 0.8748988 0.0 -0.18747832 -0.18747832 -1.12487 0.0 -0.062492773 0.31246388 -0.4374494 -0.37495664
000040 85 73 85 7a 7c 71 5c 85 79 89 85 85 53 a0 6d 7f
       0.0 -1.12487 0.0 -0.6874205 -0.562435 -1.2498555 -2.5622036 0.0 -0.7499133 0.24997109 0.0 0.0 -3.1246386 1.6873049 -1.4998266 -0.37495664
000050 85 91 85 90 87 92 b9 85 76 86 86 85 52 62 82 7d
       0.0 0.7499133 0.0 0.6874205 0.124985546 0.81240606 3.2496243 0.0 -0.9373916 0.062492773 0.062492773 0.0 -3.1871314 -2.187247 -0.18747832 -0.49994218
000060 87 8a 85 89 89 89 8b 85 86 85 84 85 91 82 2f 84
       0.124985546 0.31246388 0.0 0.24997109 0.24997109 0.24997109 0.37495664 0.0 0.062492773 0.0 -0.062492773 0.0 0.7499133 -0.18747832 -5.3743787 -0.062492773
000070 81 74 85 80 74 77 8e 85 57 a2 a0 85 a3 7a 82 5d
       -0.24997109 -1.0623771 0.0 -0.31246388 -1.0623771 -0.8748988 0.562435 0.0 -2.8746676 1.8122904 1.6873049 0.0 1.8747832 -0.6874205 -0.18747832 -2.499711

MobilenetV2/expanded_conv_1/depthwise/weights_quant/FakeQuantWithMinMaxVars u1 [1, 3, 3, 48] scale=0.02241571 zero_point=156
000000 94 96 9a bb 94 9a a2 a5 62 5c fe 9f 9b a1 86 8f
       -0.17932568 -0.13449426 -0.04483142 0.69488704 -0.17932568 -0.04483142 0.13449426 0.2017414 -1.3001112 -1.4346055 2.1967397 0.06724713 -0.02241571 0.112078555 -0.49314564 -0.29140425
000010 a5 79 e0 9a 96 b0 a8 c2 c3 9e b6 b4 a3 96 83 d4
       0.2017414 -0.7845499 1.5242683 -0.04483142 -0.13449426 0.44831422 0.26898852 0.851797 0.87421274 0.04483142 0.5828085 0.53797704 0.15690997 -0.13449426 -0.56039274 1.2552798
000020 a0 a7 ab 8e a9 c8 6e 9b 84 9e 9b 9f 91 98 a7 9b
       0.08966284 0.24657282 0.33623567 -0.31381994 0.29140425 0.9862913 -1.0311227 -0.02241571 -0.53797704 0.04483142 -0.02241571 0.06724713 -0.24657282 -0.08966284 0.24657282 -0.02241571
000030 88 8f 9c 85 98 9d a0 9f 9e e7 60 ab 97 b6 a8 9c
       -0.44831422 -0.29140425 0.0 -0.51556134 -0.08966284 0.02241571 0.08966284 0.06724713 0.04483142 1.6811783 -1.3449427 0.33623567 -0.112078555 0.5828085 0.26898852 0.0
000040 9f ff 01 98 ce cb 98 ba a7 ce a7 9f a3 a2 85 8e
       0.06724713 2.2191553 -3.474435 -0.08966284 1.1207855 1.0535384 -0.08966284 0.67247134 0.24657282 1.1207855 0.24657282 0.06724713 0.15690997 0.13449426 -0.51556134 -0.31381994
000050 9d 99 a7 a0 af 59 2b a0 b0 de c3 a5 89 66 75 9d
       0.02241571 -0.06724713 0.24657282 0.08966284 0.4258985 -1.5018526 -2.5329752 0.08966284 0.44831422 1.4794369 0.87421274 0.2017414 -0.4258985 -1.2104484 -0.87421274 0.02241571
000060 99 95 9b 76 a2 98 98 9c c0 8f 91 aa 99 ab b3 8d
       -0.06724713 -0.15690997 -0.02241571 -0.851797 0.13449426 -0.08966284 -0.08966284 0.0 0.8069656 -0.29140425 -0.24657282 0.31381994 -0.06724713 0.33623567 0.51556134 -0.33623567
000070 a0 58 e4 96 ba a6 a2 a0 99 8f 88 82 a0 9c 9a 90
       0.08966284 -1.5242683 1.6139312 -0.13449426 0.67247134 0.22415711 0.13449426 0.08966284 -0.06724713 -0.29140425 -0.44831422 -0.5828085 0.08966284 0.0 -0.04483142 -0.26898852
000080 a0 9f a0 a8 9e b1 76 99 8c a5 b1 99 9a a0 b8 9b
       0.08966284 0.06724713 0.08966284 0.26898852 0.04483142 0.47072992 -0.851797 -0.06724713 -0.35865137 0.2017414 0.47072992 -0.06724713 -0.04483142 0.08966284 0.6276399 -0.02241571
000090 9a 97 93 d3 93 8e aa b1 62 82 5e a6 9b 77 89 8b
       -0.04483142 -0.112078555 -0.2017414 1.2328641 -0.2017414 -0.31381994 0.31381994 0.47072992 -1.3001112 -0.5828085 -1.3897741 0.22415711 -0.02241571 -0.8293813 -0.4258985 -0.38106707
0000a0 a0 bb ce c8 a7 8f ad 55 3e 9d c1 6d a3 86 aa 42
       0.08966284 0.69488704 1.1207855 0.9862913 0.24657282 -0.29140425 0.38106707 -1.5915154 -2.107077 0.02241571 0.8293813 -1.0535384 0.15690997 -0.49314564 0.31381994 -2.0174139
0000b0 a7 89 a2 84 a3 f4 be 7a b5 a0 98 9e ae 9d c0 92
       0.24657282 -0.4258985 0.13449426 -0.53797704 0.15690997 1.9725826 0.76213413 -0.76213413 0.56039274 0.08966284 -0.08966284 0.04483142 0.4034828 0.02241571 0.8069656 -0.22415711
0000c0 9b 85 89 9a 97 8b a5 a5 b4 b8 a0 a6 94 49 8f 92
       -0.02241571 -0.51556134 -0.4258985 -0.04483142 -0.112078555 -0.38106707 0.2017414 0.2017414 0.53797704 0.6276399 0.08966284 0.22415711 -0.17932568 -1.860504 -0.29140425 -0.22415711
0000d0 aa 4a a1 9d 5c 85 74 6c 58 d0 ae cb a3 9c ab c3
       0.31381994 -1.8380883 0.112078555 0.02241571 -1.4346055 -0.51556134 -0.89662844 -1.0759541 -1.5242683 1.165617 0.4034828 1.0535384 0.15690997 0.0 0.33623567 0.87421274
0000e0 a5 72 97 a9 a3 1e ef d4 d8 34 ca a8 bd b2 4a 96
       0.2017414 -0.94145983 -0.112078555 0.29140425 0.15690997 -2.8243794 1.860504 1.2552798 1.3449427 -2.331234 1.0311227 0.26898852 0.73971844 0.49314564 -1.8380883 -0.13449426
0000f0 9b 92 98 78 a4 94 91 96 d0 99 bf a5 98 71 b1 91
       -0.02241571 -0.22415711 -0.08966284 -0.8069656 0.17932568 -0.17932568 -0.24657282 -0.13449426 1.165617 -0.06724713 0.7845499 0.2017414 -0.08966284 -0.96387553 0.47072992 -0.24657282

MobilenetV2/expanded_conv_1/expand/weights_quant/FakeQuantWithMinMaxVars u1 [48, 1, 1, 8] scale=0.0036623634 zero_point=124
000000 86 82 71 81 67 7b 0b 79 8d 6c 87 7c 74 75 70 63
       0.036623634 0.02197418 -0.040285997 0.018311817 -0.07690963 -0.0036623634 -0.41384706 -0.01098709 0.062260177 -0.058597814 0.040285997 0.0 -0.029298907 -0.025636544 -0.04394836 -0.09155908
000010 80 86 7b 87 90 7d ff 78 7c 7b 7f 5b 72 89 7f 7e
       0.014649454 0.036623634 -0.0036623634 0.040285997 0.07324727 0.0036623634 0.47976962 -0.014649454 0.0 -0.0036623634 0.01098709 -0.12085799 -0.036623634 0.047610722 0.01098709 0.007324727
000020 73 7c 95 85 32 cd 89 86 7b 78 7b 7b 83 7d 9b 7a
       -0.03296127 0.0 0.09155908 0.03296127 -0.2710149 0.29665142 0.047610722 0.036623634 -0.0036623634 -0.014649454 -0.0036623634 -0.0036623634 0.025636544 0.0036623634 0.113533266 -0.007324727
000030 77 78 57 82 b7 37 6e 73 77 7e 97 b5 8d 6e 75 86
       -0.018311817 -0.014649454 -0.13550745 0.02197418 0.21607944 -0.25270307 -0.05127309 -0.03296127 -0.018311817 0.007324727 0.098883815 0.20875472 0.062260177 -0.05127309 -0.025636544 0.036623634
000040 7a 7b 9d 7e 7c 84 79 88 61 63 7a 7c 7b 7a 7e 7b
       -0.007324727 -0.0036623634 0.12085799 0.007324727 0.0 0.029298907 -0.01098709 0.04394836 -0.098883815 -0.09155908 -0.007324727 0.0 -0.0036623634 -0.007324727 0.007324727 -0.0036623634
000050 76 85 78 7b 80 7e 76 8a a1 a1 82 7a 7e 7e 79 7e
       -0.02197418 0.03296127 -0.014649454 -0.0036623634 0.014649454 0.007324727 -0.02197418 0.05127309 0.13550745 0.13550745 0.02197418 -0.007324727 0.007324727 0.007324727 -0.01098709 0.007324727
000060 63 8b 75 84 ff ff 55 1e 6d 83 74 7b 7d 80 7a 8d
       -0.09155908 0.05493545 -0.025636544 0.029298907 0.47976962 0.47976962 -0.14283217 -0.34426215 -0.05493545 0.025636544 -0.029298907 -0.0036623634 0.0036623634 0.014649454 -0.007324727 0.062260177
000070 8a 6d 84 7c 76 7f 7e 60 8d 62 74 7b 8a 89 78 9e
       0.05127309 -0.05493545 0.029298907 0.0 -0.02197418 0.01098709 0.007324727 -0.10254618 0.062260177 -0.095221445 -0.029298907 -0.0036623634 0.05127309 0.047610722 -0.014649454 0.124520354
000080 4a 4e 7c 78 7c 74 7e 7b 81 96 7c 77 82 7c 7f 88
       -0.18311816 -0.16846871 0.0 -0.014649454 0.0 -0.029298907 0.007324727 -0.0036623634 0.018311817 0.095221445 0.0 -0.018311817 0.02197418 0.0 0.01098709 0.04394836
000090 7b 7f 79 7f 82 81 7e 82 78 81 7d 79 71 70 7f 84
       -0.0036623634 0.01098709 -0.01098709 0.01098709 0.02197418 0.018311817 0.007324727 0.02197418 -0.014649454 0.018311817 0.0036623634 -0.01098709 -0.040285997 -0.04394836 0.01098709 0.029298907
0000a0 87 6e 80 7c 79 77 78 66 72 8a 76 7c 7f 7c 6f 90
       0.040285997 -0.05127309 0.014649454 0.0 -0.01098709 -0.018311817 -0.014649454 -0.080571994 -0.036623634 0.05127309 -0.02197418 0.0 0.01098709 0.0 -0.047610722 0.07324727
0000b0 71 89 75 76 7d 74 7e 8f 8c 72 82 7d 70 7a 79 68
       -0.040285997 0.047610722 -0.025636544 -0.02197418 0.0036623634 -0.029298907 0.007324727 0.069584906 0.058597814 -0.036623634 0.02197418 0.0036623634 -0.04394836 -0.007324727 -0.01098709 -0.07324727
0000c0 87 70 76 7d 82 82 7a 8f 72 8c 8a 7b 72 6e 7d 66
       0.040285997 -0.04394836 -0.02197418 0.0036623634 0.02197418 0.02197418 -0.007324727 0.069584906 -0.036623634 0.058597814 0.05127309 -0.0036623634 -0.036623634 -0.05127309 0.0036623634 -0.080571994
0000d0 7a 7e 90 8a 65 98 7e 84 88 7b 7e 81 83 84 8a 71
       -0.007324727 0.007324727 0.07324727 0.05127309 -0.08423436 0.10254618 0.007324727 0.029298907 0.04394836 -0.0036623634 0.007324727 0.018311817 0.025636544 0.029298907 0.05127309 -0.040285997
0000e0 4e a3 61 82 96 84 78 a4 6a 8d 86 78 b1 ac 73 4c
       -0.16846871 0.14283217 -0.098883815 0.02197418 0.095221445 0.029298907 -0.014649454 0.14649454 -0.06592254 0.062260177 0.036623634 -0.014649454 0.19410525 0.17579344 -0.03296127 -0.17579344
0000f0 7f 7c 2f 87 6b 7d 85 61 66 8b 89 7c 76 6d 7e 64
       0.01098709 0.0 -0.28200197 0.040285997 -0.062260177 0.0036623634 0.03296127 -0.098883815 -0.080571994 0.05493545 0.047610722 0.0 -0.02197418 -0.05493545 0.007324727 -0.08789672

MobilenetV2/expanded_conv_1/project/weights_quant/FakeQuantWithMinMaxVars u1 [12, 1, 1, 48] scale=0.024238471 zero_point=124
000000 e1 51 24 72 89 0c 6d 87 78 79 87 97 70 95 6f 76
       2.4480855 -1.0422542 -2.1329854 -0.2423847 0.31510013 -2.7147088 -0.36357707 0.26662317 -0.096953884 -0.07271542 0.26662317 0.65443873 -0.29086167 0.6059618 -0.31510013 -0.14543083
000010 79 7c 92 7d 8a 25 80 75 7f 7b 86 91 7c 61 6e 80
       -0.07271542 0.0 0.53324634 0.024238471 0.3393386 -2.108747 0.096953884 -0.1696693 0.07271542 -0.024238471 0.2423847 0.5090079 0.0 -0.65443873 -0.3393386 0.096953884
000020 75 af 79 6f 71 6d 75 7e cf 7b 7c 8e 6f 80 76 98
       -0.1696693 1.2361621 -0.07271542 -0.31510013 -0.26662317 -0.36357707 -0.1696693 0.048476942 2.0117931 -0.024238471 0.0 0.43629247 -0.31510013 0.096953884 -0.14543083 0.6786772
000030 74 65 68 7b 72 7d 74 88 7c 84 56 66 9a 6e 17 69
       -0.19390777 -0.5574848 -0.4847694 -0.024238471 -0.2423847 0.024238471 -0.19390777 0.29086167 0.0 0.19390777 -0.9210619 -0.53324634 0.72715414 -0.3393386 -2.4480855 -0.46053094
000040 69 8d 9e 62 72 a2 81 68 90 90 84 2e 77 84 77 88
       -0.46053094 0.412054 0.824108 -0.63020027 -0.2423847 0.9210619 0.12119235 -0.4847694 0.4847694 0.4847694 0.19390777 -1.8906007 -0.12119235 0.19390777 -0.12119235 0.29086167
000050 82 80 28 7e 77 a9 7d 92 90 8c 8c 70 69 91 82 6a
       0.14543083 0.096953884 -2.0360315 0.048476942 -0.12119235 1.0907311 0.024238471 0.53324634 0.4847694 0.38781554 0.38781554 -0.29086167 -0.46053094 0.5090079 0.14543083 -0.43629247
000060 7e 80 8c 1e 83 6f 72 29 48 83 82 7d 7d 8a 83 7f
       0.048476942 0.096953884 0.38781554 -2.2784162 0.1696693 -0.31510013 -0.2423847 -2.0117931 -1.2604005 0.1696693 0.14543083 0.024238471 0.024238471 0.3393386 0.1696693 0.07271542
000070 75 85 74 69 88 86 84 86 80 7f 58 7c 7b 78 2b 84
       -0.1696693 0.21814623 -0.19390777 -0.46053094 0.29086167 0.2423847 0.19390777 0.2423847 0.096953884 0.07271542 -0.87258494 0.0 -0.024238471 -0.096953884 -1.9633162 0.19390777
000080 72 5c 85 11 07 81 7c 84 8c 85 75 22 86 82 7f 77
       -0.2423847 -0.77563107 0.21814623 -2.5935163 -2.835901 0.12119235 0.0 0.19390777 0.38781554 0.21814623 -0.1696693 -2.1814623 0.2423847 0.14543083 0.07271542 -0.12119235
000090 84 87 80 70 9c 94 93 6a 77 7f 87 93 69 8c 52 86
       0.19390777 0.26662317 0.096953884 -0.29086167 0.77563107 0.58172333 0.5574848 -0.43629247 -0.12119235 0.07271542 0.26662317 0.5574848 -0.46053094 0.38781554 -1.0180157 0.2423847
0000a0 90 78 85 bf 85 77 67 84 7e 76 5f 6e c1 8b 7c 7f
       0.4847694 -0.096953884 0.21814623 1.6239775 0.21814623 -0.12119235 -0.5090079 0.19390777 0.048476942 -0.14543083 -0.70291567 -0.3393386 1.6724545 0.36357707 0.0 0.07271542
0000b0 5e ff 5b 6d 73 68 79 7e 56 7c 77 82 84 77 73 76
       -0.72715414 3.1752398 -0.79986954 -0.36357707 -0.21814623 -0.4847694 -0.07271542 0.048476942 -0.9210619 0.0 -0.12119235 0.14543083 0.19390777 -0.12119235 -0.21814623 -0.14543083
0000c0 82 56 84 86 85 75 7f 81 8d 50 74 33 66 28 7a 54
       0.14543083 -0.9210619 0.19390777 0.2423847 0.21814623 -0.1696693 0.07271542 0.12119235 0.412054 -1.0664927 -0.19390777 -1.7694083 -0.53324634 -2.0360315 -0.048476942 -0.9695388
0000d0 35 53 90 7f 2b 7a 63 2b 64 a3 72 91 86 7f 7f 5b
       -1.7209314 -0.99377733 0.4847694 0.07271542 -1.9633162 -0.048476942 -0.6059618 -1.9633162 -0.58172333 0.94530034 -0.2423847 0.5090079 0.2423847 0.07271542 0.07271542 -0.79986954
0000e0 6d 8a 90 76 73 c7 6d 4e 98 5e a8 7f 32 84 b9 95
       -0.36357707 0.3393386 0.4847694 -0.14543083 -0.21814623 1.8178853 -0.36357707 -1.1149696 0.6786772 -0.72715414 1.0664927 0.07271542 -1.7936468 0.19390777 1.4785467 0.6059618
0000f0 99 ac 8e 80 82 85 75 78 74 79 5f 71 99 44 80 7c
       0.70291567 1.1634467 0.43629247 0.096953884 0.14543083 0.21814623 -0.1696693 -0.096953884 -0.19390777 -0.07271542 -0.70291567 -0.26662317 0.70291567 -1.3573544 0.096953884 0.0

MobilenetV2/expanded_conv_10/depthwise/weights_quant/FakeQuantWithMinMaxVars u1 [1, 3, 3, 192] scale=0.030662015 zero_point=125
000000 7d 79 78 77 8a 7e 7b 80 82 77 80 8d 83 7a 81 63
       0.0 -0.12264806 -0.15331008 -0.18397209 0.39860618 0.030662015 -0.06132403 0.091986045 0.15331008 -0.18397209 0.091986045 0.49059224 0.18397209 -0.091986045 0.12264806 -0.79721236
000010 78 7e 84 79 6c 7d 7e 81 7d 80 80 7f 85 8b 6b 7c
       -0.15331008 0.030662015 0.2146341 -0.12264806 -0.52125424 0.0 0.030662015 0.12264806 0.0 0.091986045 0.091986045 0.06132403 0.24529612 0.4292682 -0.55191624 -0.030662015
000020 8a 7a 77 7a 7a 7a 7f 7b 78 7d 87 85 79 85 7c 7c
       0.39860618 -0.091986045 -0.18397209 -0.091986045 -0.091986045 -0.091986045 0.06132403 -0.06132403 -0.15331008 0.0 0.30662015 0.24529612 -0.12264806 0.24529612 -0.030662015 -0.030662015
000030 79 7f 82 7d 78 78 77 7f 7e 7e 7c 79 7a 82 74 74
       -0.12264806 0.06132403 0.15331008 0.0 -0.15331008 -0.15331008 -0.18397209 0.06132403 0.030662015 0.030662015 -0.030662015 -0.12264806 -0.091986045 0.15331008 -0.27595812 -0.27595812
000040 7c 79 7a 79 7a 81 80 7d 80 7b 93 79 8b 78 80 84
       -0.030662015 -0.12264806 -0.091986045 -0.12264806 -0.091986045 0.12264806 0.091986045 0.0 0.091986045 -0.06132403 0.67456436 -0.12264806 0.4292682 -0.15331008 0.091986045 0.2146341
000050 8f 90 7b 78 81 7e 7b 7f 82 74 83 75 7b 77 94 7f
       0.55191624 0.5825783 -0.06132403 -0.15331008 0.12264806 0.030662015 -0.06132403 0.06132403 0.15331008 -0.27595812 0.18397209 -0.24529612 -0.06132403 -0.18397209 0.70522636 0.06132403
000060 7a 83 79 7f 9e 81 74 7e 83 7e 80 74 74 7e 86 85
       -0.091986045 0.18397209 -0.12264806 0.06132403 1.0118465 0.12264806 -0.27595812 0.030662015 0.18397209 0.030662015 0.091986045 -0.27595812 -0.27595812 0.030662015 0.27595812 0.24529612
000070 80 a1 81 79 84 83 76 82 7c 78 85 7a 80 75 7e 7e
       0.091986045 1.1038325 0.12264806 -0.12264806 0.2146341 0.18397209 -0.2146341 0.15331008 -0.030662015 -0.15331008 0.24529612 -0.091986045 0.091986045 -0.24529612 0.030662015 0.030662015
000080 71 62 7d 70 72 7f 7c 70 95 80 7a 6f 78 80 7b 7a
       -0.36794418 -0.8278744 0.0 -0.39860618 -0.33728218 0.06132403 -0.030662015 -0.39860618 0.73588836 0.091986045 -0.091986045 -0.4292682 -0.15331008 0.091986045 -0.06132403 -0.091986045
000090 80 83 73 82 72 7d 80 7f 7a 7f 7a 7c 7d 81 7f 8b
       0.091986045 0.18397209 -0.30662015 0.15331008 -0.33728218 0.0 0.091986045 0.06132403 -0.091986045 0.06132403 -0.091986045 -0.030662015 0.0 0.12264806 0.06132403 0.4292682
0000a0 78 7f 7a 82 7f 77 7e 7f 67 77 7e 82 7f 7e 85 72
       -0.15331008 0.06132403 -0.091986045 0.15331008 0.06132403 -0.18397209 0.030662015 0.06132403 -0.67456436 -0.18397209 0.030662015 0.15331008 0.06132403 0.030662015 0.24529612 -0.33728218
0000b0 7f 83 7f 7c 93 7f 7f 76 80 88 76 7b 7f 7f 87 7a
       0.06132403 0.18397209 0.06132403 -0.030662015 0.67456436 0.06132403 0.06132403 -0.2146341 0.091986045 0.33728218 -0.2146341 -0.06132403 0.06132403 0.06132403 0.30662015 -0.091986045
0000c0 76 79 88 6f 9d 85 78 7e 89 56 8c ac 85 77 85 77
       -0.2146341 -0.12264806 0.33728218 -0.4292682 0.9811845 0.24529612 -0.15331008 0.030662015 0.36794418 -1.1958185 0.45993024 1.4411147 0.24529612 -0.18397209 0.24529612 -0.18397209
0000d0 75 7f 92 79 6c 83 78 89 79 87 84 84 8d ca 60 87
       -0.24529612 0.06132403 0.6439023 -0.12264806 -0.52125424 0.18397209 -0.15331008 0.36794418 -0.12264806 0.30662015 0.2146341 0.2146341 0.49059224 2.3609753 -0.8891984 0.30662015
0000e0 8c 75 6e 75 8a 8c 97 71 72 83 33 8e 78 8b 84 81
       0.45993024 -0.24529612 -0.45993024 -0.24529612 0.39860618 0.45993024 0.79721236 -0.36794418 -0.33728218 0.18397209 -2.268989 0.52125424 -0.15331008 0.4292682 0.2146341 0.12264806
0000f0 70 8d 83 7c 77 6e 70 8e 84 7e 84 78 74 8a 7d 87
       -0.39860618 0.49059224 0.18397209 -0.030662015 -0.18397209 -0.45993024 -0.39860618 0.52125424 0.2146341 0.030662015 0.2146341 -0.15331008 -0.27595812 0.39860618 0.0 0.30662015

MobilenetV2/expanded_conv_10/expand/weights_quant/FakeQuantWithMinMaxVars u1 [192, 1, 1, 32] scale=0.0017137813 zero_point=139
000000 7c 9a 6e 79 94 4d a5 a5 97 81 6d 64 8a 6f ab 9a
       -0.02570672 0.02570672 -0.049699657 -0.030848064 0.015424032 -0.106254436 0.044558313 0.044558313 0.020565376 -0.017137812 -0.05141344 -0.06683747 -0.0017137813 -0.047985874 0.054841 0.02570672
000010 b6 90 56 78 68 bc b0 9b 83 80 89 98 81 a1 6e 85
       0.0736926 0.008568906 -0.09083041 -0.032561842 -0.059982345 0.083975285 0.06340991 0.0274205 -0.01371025 -0.018851593 -0.0034275625 0.022279156 -0.017137812 0.037703186 -0.049699657 -0.010282688
000020 8c 87 89 80 86 62 7e 71 92 61 be 78 af 71 9f 72
       0.0017137813 -0.006855125 -0.0034275625 -0.018851593 -0.008568906 -0.07026503 -0.022279156 -0.044558313 0.0119964685 -0.071978815 0.08740284 -0.032561842 0.061696127 -0.044558313 0.034275625 -0.04284453
000030 9e 77 79 98 8a a8 81 87 7e 8b 8b 81 84 7a 7f 9a
       0.032561842 -0.034275625 -0.030848064 0.022279156 -0.0017137813 0.049699657 -0.017137812 -0.006855125 -0.022279156 0.0 0.0 -0.017137812 -0.0119964685 -0.029134281 -0.020565376 0.02570672
000040 7a 89 89 7e 7c 89 80 80 8b 77 9a 78 a3 8a 94 6d
       -0.029134281 -0.0034275625 -0.0034275625 -0.022279156 -0.02570672 -0.0034275625 -0.018851593 -0.018851593 0.0 -0.034275625 0.02570672 -0.032561842 0.04113075 -0.0017137813 0.015424032 -0.05141344
000050 7f 8e a0 84 7b 92 8c 7b 7b 98 87 99 89 a4 8d 8c
       -0.020565376 0.005141344 0.035989407 -0.0119964685 -0.0274205 0.0119964685 0.0017137813 -0.0274205 -0.0274205 0.022279156 -0.006855125 0.023992937 -0.0034275625 0.04284453 0.0034275625 0.0017137813
000060 8b 8d 87 84 9c 8b 7e 8c a5 71 84 83 86 8f 93 80
       0.0 0.0034275625 -0.006855125 -0.0119964685 0.029134281 0.0 -0.022279156 0.0017137813 0.044558313 -0.044558313 -0.0119964685 -0.01371025 -0.008568906 0.006855125 0.01371025 -0.018851593
000070 62 93 7b 82 82 98 8f 84 84 88 81 88 9d 82 90 8c
       -0.07026503 0.01371025 -0.0274205 -0.015424032 -0.015424032 0.022279156 0.006855125 -0.0119964685 -0.0119964685 -0.005141344 -0.017137812 -0.005141344 0.030848064 -0.015424032 0.008568906 0.0017137813
000080 9f 8e 64 74 50 6d 9b 95 87 8f 76 6f a7 8d b9 b2
       0.034275625 0.005141344 -0.06683747 -0.03941697 -0.101113096 -0.05141344 0.0274205 0.017137812 -0.006855125 0.006855125 -0.035989407 -0.047985874 0.047985874 0.0034275625 0.07883394 0.06683747
000090 90 7b 8a 82 76 89 86 7f af 93 92 61 97 9d 85 85
       0.008568906 -0.0274205 -0.0017137813 -0.015424032 -0.035989407 -0.0034275625 -0.008568906 -0.020565376 0.061696127 0.01371025 0.0119964685 -0.071978815 0.020565376 0.030848064 -0.010282688 -0.010282688
0000a0 88 7e 55 8b 65 84 b8 8b 6c 9a 90 9b a0 89 81 8b
       -0.005141344 -0.022279156 -0.09254419 0.0 -0.065123685 -0.0119964685 0.077120155 0.0 -0.053127218 0.02570672 0.008568906 0.0274205 0.035989407 -0.0034275625 -0.017137812 0.0
0000b0 c3 8a 87 a6 8d 75 87 7d 79 94 85 94 7a 93 76 89
       0.09597175 -0.0017137813 -0.006855125 0.046272095 0.0034275625 -0.037703186 -0.006855125 -0.023992937 -0.030848064 0.015424032 -0.010282688 0.015424032 -0.029134281 0.01371025 -0.035989407 -0.0034275625
0000c0 8f 8b 8d 85 a7 64 97 82 c1 a4 b4 6b 97 85 90 98
       0.006855125 0.0 0.0034275625 -0.010282688 0.047985874 -0.06683747 0.020565376 -0.015424032 0.09254419 0.04284453 0.07026503 -0.054841 0.020565376 -0.010282688 0.008568906 0.022279156
0000d0 8a 83 9a 97 6c 70 94 94 82 8d 93 7d 88 7b 9e 98
       -0.0017137813 -0.01371025 0.02570672 0.020565376 -0.053127218 -0.046272095 0.015424032 0.015424032 -0.015424032 0.0034275625 0.01371025 -0.023992937 -0.005141344 -0.0274205 0.032561842 0.022279156
0000e0 52 7e 89 7b b1 7e af 97 7d 7f 8e 9d 7f 7a 68 97
       -0.09768553 -0.022279156 -0.0034275625 -0.0274205 0.065123685 -0.022279156 0.061696127 0.020565376 -0.023992937 -0.020565376 0.005141344 0.030848064 -0.020565376 -0.029134281 -0.059982345 0.020565376
0000f0 7a 89 72 8a 8c 7f 87 8a 9d 97 91 40 a7 86 79 81
       -0.029134281 -0.0034275625 -0.04284453 -0.0017137813 0.0017137813 -0.020565376 -0.006855125 -0.0017137813 0.030848064 0.020565376 0.010282688 -0.1285336 0.047985874 -0.008568906 -0.030848064 -0.017137812

MobilenetV2/expanded_conv_10/project/weights_quant/FakeQuantWithMinMaxVars u1 [48, 1, 1, 192] scale=0.012015881 zero_point=144
000000 99 99 5d 84 99 8e 9b 85 96 8b b6 69 8d 80 98 72
       0.10814293 0.10814293 -0.61280996 -0.14419058 0.10814293 -0.024031762 0.13217469 -0.13217469 0.07209529 -0.060079403 0.45660347 -0.46861935 -0.036047645 -0.1922541 0.09612705 -0.36047643
000010 a2 b8 74 93 ae 8e 81 b5 96 8c af 9d 98 81 96 ad
       0.21628585 0.48063523 -0.33644468 0.036047645 0.36047643 -0.024031762 -0.18023822 0.4445876 0.07209529 -0.048063524 0.3724923 0.15620646 0.09612705 -0.18023822 0.07209529 0.34846056
000020 a7 8d 7f 83 a3 6e 5f 9a 77 95 86 95 86 9c b1 9c
       0.27636525 -0.036047645 -0.20426998 -0.15620646 0.22830173 -0.40853995 -0.5887782 0.12015881 -0.30039704 0.060079403 -0.12015881 0.060079403 -0.12015881 0.14419058 0.39652407 0.14419058
000030 a1 94 a3 8d b0 9a 9c 84 79 b7 92 89 89 97 76 77
       0.20426998 0.048063524 0.22830173 -0.036047645 0.3845082 0.12015881 0.14419058 -0.14419058 -0.27636525 0.46861935 0.024031762 -0.08411117 -0.08411117 0.08411117 -0.31241292 -0.30039704
000040 66 a0 8f 90 a3 9b 95 88 a2 80 a7 9c 7f a6 90 9d
       -0.504667 0.1922541 -0.012015881 0.0 0.22830173 0.13217469 0.060079403 -0.09612705 0.21628585 -0.1922541 0.27636525 0.14419058 -0.20426998 0.26434937 0.0 0.15620646
000050 a9 8c ad 9f 79 8c 93 ae 95 77 9a 86 9b 96 a1 80
       0.30039704 -0.048063524 0.34846056 0.18023822 -0.27636525 -0.048063524 0.036047645 0.36047643 0.060079403 -0.30039704 0.12015881 -0.12015881 0.13217469 0.07209529 0.20426998 -0.1922541
000060 8f 94 7c 7e 63 b4 b5 ad ab 7b 97 8c 96 94 60 87
       -0.012015881 0.048063524 -0.24031761 -0.21628585 -0.5407146 0.4325717 0.4445876 0.34846056 0.3244288 -0.2523335 0.08411117 -0.048063524 0.07209529 0.048063524 -0.5767623 -0.10814293
000070 8c 8b 5c 8d a7 9e 8b a0 88 9b a2 d0 8d 88 b2 9f
       -0.048063524 -0.060079403 -0.62482584 -0.036047645 0.27636525 0.16822234 -0.060079403 0.1922541 -0.09612705 0.13217469 0.21628585 0.7690164 -0.036047645 -0.09612705 0.40853995 0.18023822
000080 87 93 7b e3 8b 94 92 62 8e 85 87 b2 9a d0 a5 77
       -0.10814293 0.036047645 -0.2523335 0.99731815 -0.060079403 0.048063524 0.024031762 -0.5527305 -0.024031762 -0.13217469 -0.10814293 0.40853995 0.12015881 0.7690164 0.2523335 -0.30039704
000090 78 9f 89 8d 84 8f 83 7a 85 9c 73 94 70 9a a1 a9
       -0.28838116 0.18023822 -0.08411117 -0.036047645 -0.14419058 -0.012015881 -0.15620646 -0.26434937 -0.13217469 0.14419058 -0.34846056 0.048063524 -0.3845082 0.12015881 0.20426998 0.30039704
0000a0 85 a1 9f 68 84 66 8c a3 98 98 89 90 7c 9d 96 8d
       -0.13217469 0.20426998 0.18023822 -0.48063523 -0.14419058 -0.504667 -0.048063524 0.22830173 0.09612705 0.09612705 -0.08411117 0.0 -0.24031761 0.15620646 0.07209529 -0.036047645
0000b0 9d 9f 96 d2 af 77 8d a8 a5 94 a7 91 aa a9 c5 92
       0.15620646 0.18023822 0.07209529 0.79304814 0.3724923 -0.30039704 -0.036047645 0.28838116 0.2523335 0.048063524 0.27636525 0.012015881 0.31241292 0.30039704 0.6368417 0.024031762
0000c0 90 8a 91 7f 7c 8a 70 93 8e 83 83 7e 61 96 87 a9
       0.0 -0.07209529 0.012015881 -0.20426998 -0.24031761 -0.07209529 -0.3845082 0.036047645 -0.024031762 -0.15620646 -0.15620646 -0.21628585 -0.5647464 0.07209529 -0.10814293 0.30039704
0000d0 8c a3 7e 6c a1 93 8b a2 72 92 8b bc 79 92 8a ad
       -0.048063524 0.22830173 -0.21628585 -0.4325717 0.20426998 0.036047645 -0.060079403 0.21628585 -0.36047643 0.024031762 -0.060079403 0.52869874 -0.27636525 0.024031762 -0.07209529 0.34846056
0000e0 83 9d 8a 8f 92 8a 9d 93 7e 5e 78 7e 6e 9b 95 97
       -0.15620646 0.15620646 -0.07209529 -0.012015881 0.024031762 -0.07209529 0.15620646 0.036047645 -0.21628585 -0.6007941 -0.28838116 -0.21628585 -0.40853995 0.13217469 0.060079403 0.08411117
0000f0 8a 84 8c 89 88 6f 7f 7f 94 91 61 7e 7f 75 9d 94
       -0.07209529 -0.14419058 -0.048063524 -0.08411117 -0.09612705 -0.39652407 -0.20426998 -0.20426998 0.048063524 0.012015881 -0.5647464 -0.21628585 -0.20426998 -0.3244288 0.15620646 0.048063524

MobilenetV2/expanded_conv_11/depthwise/weights_quant/FakeQuantWithMinMaxVars u1 [1, 3, 3, 288] scale=0.09734421 zero_point=75
000000 48 47 48 4e 4c 57 51 4f 45 4c 4c 4a 4c 4a 4d 4e
       -0.29203263 -0.38937685 -0.29203263 0.29203263 0.09734421 1.1681305 0.58406526 0.38937685 -0.58406526 0.09734421 0.09734421 -0.09734421 0.09734421 -0.09734421 0.19468842 0.29203263
000010 45 4b 45 47 4e 4a 4c 47 4c 4c 4e 47 4e 4d 4d 51
       -0.58406526 0.0 -0.58406526 -0.38937685 0.29203263 -0.09734421 0.09734421 -0.38937685 0.09734421 0.09734421 0.29203263 -0.38937685 0.29203263 0.19468842 0.19468842 0.58406526
000020 47 53 4f 5d 4d 44 48 4f 5a 4a 4a 4c 47 58 50 4a
       -0.38937685 0.7787537 0.38937685 1.7521958 0.19468842 -0.6814095 -0.29203263 0.38937685 1.4601632 -0.09734421 -0.09734421 0.09734421 -0.38937685 1.2654748 0.48672107 -0.09734421
000030 48 4e 52 45 5b 50 4b 4a 4c 48 4a 4a 4c 54 45 48
       -0.29203263 0.29203263 0.6814095 -0.58406526 1.5575074 0.48672107 0.0 -0.09734421 0.09734421 -0.29203263 -0.09734421 -0.09734421 0.09734421 0.8760979 -0.58406526 -0.29203263
000040 4f 4c 9f 4a 44 4e 4d 4b 4b 4b 44 4a 4e 4a 3c 49
       0.38937685 0.09734421 8.176914 -0.09734421 -0.6814095 0.29203263 0.19468842 0.0 0.0 0.0 -0.6814095 -0.09734421 0.29203263 -0.09734421 -1.4601632 -0.19468842
000050 4f 45 46 4e 4e 4e 4c 4a 4a 49 50 5d 4c 46 3b 50
       0.38937685 -0.58406526 -0.48672107 0.29203263 0.29203263 0.29203263 0.09734421 -0.09734421 -0.09734421 -0.19468842 0.48672107 1.7521958 0.09734421 -0.48672107 -1.5575074 0.48672107
000060 4e 38 48 46 52 4f 4b 4a 4e 4a 4d 56 21 52 48 4f
       0.29203263 -1.84954 -0.29203263 -0.48672107 0.6814095 0.38937685 0.0 -0.09734421 0.29203263 -0.09734421 0.19468842 1.0707864 -4.088457 0.6814095 -0.29203263 0.38937685
000070 4f 4e 4b 4c 46 48 4c 55 4c 10 4f 48 49 49 49 49
       0.38937685 0.29203263 0.0 0.09734421 -0.48672107 -0.29203263 0.09734421 0.97344214 0.09734421 -5.7433085 0.38937685 -0.29203263 -0.19468842 -0.19468842 -0.19468842 -0.19468842
000080 50 64 4d 48 4c 4a 56 34 47 47 4d 4c 4c 4e 4e 42
       0.48672107 2.4336052 0.19468842 -0.29203263 0.09734421 -0.09734421 1.0707864 -2.2389169 -0.38937685 -0.38937685 0.19468842 0.09734421 0.09734421 0.29203263 0.29203263 -0.8760979
000090 46 51 51 50 48 48 4d 4d 52 4c 4c 48 50 47 4f 4b
       -0.48672107 0.58406526 0.58406526 0.48672107 -0.29203263 -0.29203263 0.19468842 0.19468842 0.6814095 0.09734421 0.09734421 -0.29203263 0.48672107 -0.38937685 0.38937685 0.0
0000a0 49 4a 4f 47 4a 4d 4b 52 4e 54 4a 4a 48 55 4b 4c
       -0.19468842 -0.09734421 0.38937685 -0.38937685 -0.09734421 0.19468842 0.0 0.6814095 0.29203263 0.8760979 -0.09734421 -0.09734421 -0.29203263 0.97344214 0.0 0.09734421
0000b0 39 4b 4b 4b 4c 50 4d 4a 4f 4d 4c 48 4f 4d 54 4e
       -1.7521958 0.0 0.0 0.0 0.09734421 0.48672107 0.19468842 -0.09734421 0.38937685 0.19468842 0.09734421 -0.29203263 0.38937685 0.19468842 0.8760979 0.29203263
0000c0 4b 4a 49 4f 4b 47 4a 4b 47 56 43 4a 4b 4b 4c 49
       0.0 -0.09734421 -0.19468842 0.38937685 0.0 -0.38937685 -0.09734421 0.0 -0.38937685 1.0707864 -0.7787537 -0.09734421 0.0 0.0 0.09734421 -0.19468842
0000d0 49 48 4c 46 48 4a 50 48 49 4f 49 4f 53 49 47 49
       -0.19468842 -0.29203263 0.09734421 -0.48672107 -0.29203263 -0.09734421 0.48672107 -0.29203263 -0.19468842 0.38937685 -0.19468842 0.38937685 0.7787537 -0.19468842 -0.38937685 -0.19468842
0000e0 58 60 4b 4b 4a 50 4f 4f 48 4d 4c 48 48 50 4f 48
       1.2654748 2.0442286 0.0 0.0 -0.09734421 0.48672107 0.38937685 0.38937685 -0.29203263 0.19468842 0.09734421 -0.29203263 -0.29203263 0.48672107 0.38937685 -0.29203263
0000f0 49 51 4e 4a 48 4b 4b 4c 49 49 48 52 49 51 4b 4a
       -0.19468842 0.58406526 0.29203263 -0.09734421 -0.29203263 0.0 0.0 0.09734421 -0.19468842 -0.19468842 -0.29203263 0.6814095 -0.19468842 0.58406526 0.0 -0.09734421

MobilenetV2/expanded_conv_11/expand/weights_quant/FakeQuantWithMinMaxVars u1 [288, 1, 1, 48] scale=0.0016594967 zero_point=116
000000 87 78 53 6a 5b 5d 6e 86 4f 83 61 6f 53 7e 6b 61
       0.031530436 0.0066379867 -0.05476339 -0.016594967 -0.041487418 -0.038168423 -0.00995698 0.02987094 -0.06140138 0.02489245 -0.031530436 -0.008297483 -0.05476339 0.016594967 -0.01493547 -0.031530436
000010 7a 6a 8b 7c 77 60 7b 4a 7c 68 84 7c 8a 5d 78 78
       0.00995698 -0.016594967 0.038168423 0.0132759735 0.00497849 -0.033189934 0.011616477 -0.06969886 0.0132759735 -0.01991396 0.026551947 0.0132759735 0.036508925 -0.038168423 0.0066379867 0.0066379867
000020 60 76 6d 84 75 84 7d 6c 72 70 75 63 6e 7f 52 6e
       -0.033189934 0.0033189934 -0.011616477 0.026551947 0.0016594967 0.026551947 0.01493547 -0.0132759735 -0.0033189934 -0.0066379867 0.0016594967 -0.028211445 -0.00995698 0.018254463 -0.05642289 -0.00995698
000030 60 41 7d 7a 8d 77 86 66 77 53 68 97 79 6e 8e 7f
       -0.033189934 -0.084634334 0.01493547 0.00995698 0.041487418 0.00497849 0.02987094 -0.023232954 0.00497849 -0.05476339 -0.01991396 0.058082383 0.008297483 -0.00995698 0.043146916 0.018254463
000040 84 7a 62 5b 7a 78 70 87 69 68 7d 6f 69 7f 8b 94
       0.026551947 0.00995698 -0.02987094 -0.041487418 0.00995698 0.0066379867 -0.0066379867 0.031530436 -0.018254463 -0.01991396 0.01493547 -0.008297483 -0.018254463 0.018254463 0.038168423 0.053103894
000050 9b 80 8e 58 88 6e 87 74 6a 78 77 75 7e 60 89 7d
       0.06472037 0.01991396 0.043146916 -0.046465907 0.033189934 -0.00995698 0.031530436 0.0 -0.016594967 0.0066379867 0.00497849 0.0016594967 0.016594967 -0.033189934 0.03484943 0.01493547
000060 79 7d 91 57 65 9c ba 71 67 73 65 82 96 75 6d 4d
       0.008297483 0.01493547 0.048125405 -0.048125405 -0.02489245 0.06637987 0.116164766 -0.00497849 -0.021573458 -0.0016594967 -0.02489245 0.023232954 0.05642289 0.0016594967 -0.011616477 -0.06472037
000070 75 75 65 7a 63 62 5d 59 76 7f 94 55 93 6e af 8e
       0.0016594967 0.0016594967 -0.02489245 0.00995698 -0.028211445 -0.02987094 -0.038168423 -0.04480641 0.0033189934 0.018254463 0.053103894 -0.051444396 0.051444396 -0.00995698 0.09791031 0.043146916
000080 44 51 7a b3 91 69 8a 7d 92 55 57 4e 61 aa 97 6f
       -0.07965584 -0.058082383 0.00995698 0.10454829 0.048125405 -0.018254463 0.036508925 0.01493547 0.0497849 -0.051444396 -0.048125405 -0.06306087 -0.031530436 0.08961282 0.058082383 -0.008297483
000090 67 6a 48 87 9f 8e 92 91 73 59 a6 93 52 55 9c 6f
       -0.021573458 -0.016594967 -0.07301785 0.031530436 0.07135836 0.043146916 0.0497849 0.048125405 -0.0016594967 -0.04480641 0.082974836 0.051444396 -0.05642289 -0.051444396 0.06637987 -0.008297483
0000a0 52 97 88 8b 46 70 7e 5e 82 72 83 64 85 7a 8f 59
       -0.05642289 0.058082383 0.033189934 0.038168423 -0.076336846 -0.0066379867 0.016594967 -0.036508925 0.023232954 -0.0033189934 0.02489245 -0.026551947 0.028211445 0.00995698 0.04480641 -0.04480641
0000b0 63 99 84 7f 92 88 94 84 90 a7 3d 5c 85 54 75 73
       -0.028211445 0.06140138 0.026551947 0.018254463 0.0497849 0.033189934 0.053103894 0.026551947 0.046465907 0.084634334 -0.09127232 -0.03982792 0.028211445 -0.053103894 0.0016594967 -0.0016594967
0000c0 68 86 77 74 7c 72 70 7b 5e 66 77 77 93 81 5e 2b
       -0.01991396 0.02987094 0.00497849 0.0 0.0132759735 -0.0033189934 -0.0066379867 0.011616477 -0.036508925 -0.023232954 0.00497849 0.00497849 0.051444396 0.021573458 -0.036508925 -0.12114326
0000d0 6a 69 61 45 83 83 81 77 62 7c 7e b3 80 7a 81 61
       -0.016594967 -0.018254463 -0.031530436 -0.07799634 0.02489245 0.02489245 0.021573458 0.00497849 -0.02987094 0.0132759735 0.016594967 0.10454829 0.01991396 0.00995698 0.021573458 -0.031530436
0000e0 5b 49 71 6e 6d 99 6e a4 74 8f 7d 5e 88 39 7d 71
       -0.041487418 -0.07135836 -0.00497849 -0.00995698 -0.011616477 0.06140138 -0.00995698 0.07965584 0.0 0.04480641 0.01493547 -0.036508925 0.033189934 -0.09791031 0.01493547 -0.00497849
0000f0 75 73 84 6e 67 57 7b 86 73 77 63 70 72 7b 73 6a
       0.0016594967 -0.0016594967 0.026551947 -0.00995698 -0.021573458 -0.048125405 0.011616477 0.02987094 -0.0016594967 0.00497849 -0.028211445 -0.0066379867 -0.0033189934 0.011616477 -0.0016594967 -0.016594967

MobilenetV2/expanded_conv_11/project/weights_quant/FakeQuantWithMinMaxVars u1 [48, 1, 1, 288] scale=0.009923 zero_point=148
000000 a1 8d 9e 7a b1 a1 92 87 c2 9f a5 8f 7a 96 8c c4
       0.128999 -0.069461 0.09923 -0.257998 0.287767 0.128999 -0.019846 -0.128999 0.456458 0.109153 0.168691 -0.049615 -0.257998 0.019846 -0.079384 0.476304
000010 85 99 ca 9c a5 87 9f 9e 6c a2 91 85 a3 7f a9 5e
       -0.148845 0.049615 0.535842 0.079384 0.168691 -0.128999 0.109153 0.09923 -0.39692 0.138922 -0.029769 -0.148845 0.148845 -0.208383 0.208383 -0.535842
000020 7c 86 8f 9b 79 90 8d 9c a0 84 7f 8c 89 88 91 91
       -0.238152 -0.138922 -0.049615 0.069461 -0.267921 -0.039692 -0.069461 0.079384 0.119076 -0.158768 -0.208383 -0.079384 -0.109153 -0.119076 -0.029769 -0.029769
000030 a3 7c b8 8d 99 a0 61 b7 8b 7c 95 87 aa 99 80 8e
       0.148845 -0.238152 0.35722798 -0.069461 0.049615 0.119076 -0.506073 0.347305 -0.089306995 -0.238152 0.009923 -0.128999 0.218306 0.049615 -0.19846 -0.059538
000040 94 7d 81 7b 99 86 89 70 9b 84 95 80 95 a1 98 8f
       0.0 -0.228229 -0.188537 -0.248075 0.049615 -0.138922 -0.109153 -0.35722798 0.069461 -0.158768 0.009923 -0.19846 0.009923 0.128999 0.039692 -0.049615
000050 af 93 ac 79 78 9e 9c 81 8f 67 b6 91 a1 96 86 a0
       0.267921 -0.009923 0.238152 -0.267921 -0.277844 0.09923 0.079384 -0.188537 -0.049615 -0.446535 0.337382 -0.029769 0.128999 0.019846 -0.138922 0.119076
000060 88 86 9a 6e 93 94 9c b6 5b 98 91 9f 89 88 bc 60
       -0.119076 -0.138922 0.059538 -0.377074 -0.009923 0.0 0.079384 0.337382 -0.565611 0.039692 -0.029769 0.109153 -0.109153 -0.119076 0.39692 -0.515996
000070 b3 72 9f a0 86 87 8b a2 76 6e 72 c4 c5 a8 b6 aa
       0.307613 -0.337382 0.109153 0.119076 -0.138922 -0.128999 -0.089306995 0.138922 -0.29769 -0.377074 -0.337382 0.476304 0.486227 0.19846 0.337382 0.218306
000080 b3 94 95 b1 91 af b8 77 87 9a 9c 91 a9 a4 94 83
       0.307613 0.0 0.009923 0.287767 -0.029769 0.267921 0.35722798 -0.287767 -0.128999 0.059538 0.079384 -0.029769 0.208383 0.158768 0.0 -0.168691
000090 89 a5 b5 8a 93 70 84 95 78 8a a6 91 86 90 78 89
       -0.109153 0.168691 0.327459 -0.09923 -0.009923 -0.35722798 -0.158768 0.009923 -0.277844 -0.09923 0.17861399 -0.029769 -0.138922 -0.039692 -0.277844 -0.109153
0000a0 91 82 ad 93 82 a6 85 b0 84 88 9f 74 97 91 8b 7c
       -0.029769 -0.17861399 0.248075 -0.009923 -0.17861399 0.17861399 -0.148845 0.277844 -0.158768 -0.119076 0.109153 -0.317536 0.029769 -0.029769 -0.089306995 -0.238152
0000b0 9b 92 98 9a 78 97 8b a2 a6 8c 9f 95 7a 94 8f ac
       0.069461 -0.019846 0.039692 0.059538 -0.277844 0.029769 -0.089306995 0.138922 0.17861399 -0.079384 0.109153 0.009923 -0.257998 0.0 -0.049615 0.238152
0000c0 9c 96 a6 6a a5 78 89 71 a4 91 9c 8c 9e 98 ab 99
       0.079384 0.019846 0.17861399 -0.416766 0.168691 -0.277844 -0.109153 -0.347305 0.158768 -0.029769 0.079384 -0.079384 0.09923 0.039692 0.228229 0.049615
0000d0 8e 8d a1 a0 a3 97 91 9c 8e 97 91 7c 93 99 9a 9e
       -0.059538 -0.069461 0.128999 0.119076 0.148845 0.029769 -0.029769 0.079384 -0.059538 0.029769 -0.029769 -0.238152 -0.009923 0.049615 0.059538 0.09923
0000e0 99 7d 98 a8 66 88 86 8e af d5 9b 98 91 9d 7a 7e
       0.049615 -0.228229 0.039692 0.19846 -0.456458 -0.119076 -0.138922 -0.059538 0.267921 0.644995 0.069461 0.039692 -0.029769 0.089306995 -0.257998 -0.218306
0000f0 a5 79 8e 93 74 a5 9d ae aa b4 95 92 90 73 97 67
       0.168691 -0.267921 -0.059538 -0.009923 -0.317536 0.168691 0.089306995 0.257998 0.218306 0.317536 0.009923 -0.019846 -0.039692 -0.327459 0.029769 -0.446535

MobilenetV2/expanded_conv_12/depthwise/weights_quant/FakeQuantWithMinMaxVars u1 [1, 3, 3, 288] scale=0.042310845 zero_point=110
000000 74 68 6c 68 69 85 6e 67 71 6e 61 72 66 7a 75 69
       0.25386506 -0.25386506 -0.08462169 -0.25386506 -0.21155423 0.9731494 0.0 -0.29617593 0.12693253 0.0 -0.55004096 0.16924338 -0.33848676 0.5077301 0.29617593 -0.21155423
000010 66 6d 75 70 6d 81 4d 68 5f 76 7a 7c 69 6f 6c 6d
       -0.33848676 -0.042310845 0.29617593 0.08462169 -0.042310845 0.8039061 -1.3962579 -0.25386506 -0.6346627 0.33848676 0.5077301 0.59235185 -0.21155423 0.042310845 -0.08462169 -0.042310845
000020 65 71 75 72 6f 80 6c 80 70 64 6c 6e 7d 7c 64 6a
       -0.3807976 0.12693253 0.29617593 0.16924338 0.042310845 0.7615952 -0.08462169 0.7615952 0.08462169 -0.42310846 -0.08462169 0.0 0.6346627 0.59235185 -0.42310846 -0.16924338
000030 6e 7e 6b 70 75 73 6f 6e 71 7e 6e 6b 61 74 78 64
       0.0 0.6769735 -0.12693253 0.08462169 0.29617593 0.21155423 0.042310845 0.0 0.12693253 0.6769735 0.0 -0.12693253 -0.55004096 0.25386506 0.42310846 -0.42310846
000040 7a 8b 6e 78 73 7e 67 70 6b 67 6d 70 77 6a 81 72
       0.5077301 1.2270145 0.0 0.42310846 0.21155423 0.6769735 -0.29617593 0.08462169 -0.12693253 -0.29617593 -0.042310845 0.08462169 0.3807976 -0.16924338 0.8039061 0.16924338
000050 90 6d 73 67 68 76 69 49 68 6b 74 71 6e 7f 6f 70
       1.4385687 -0.042310845 0.21155423 -0.29617593 -0.25386506 0.33848676 -0.21155423 -1.5655012 -0.25386506 -0.12693253 0.25386506 0.12693253 0.0 0.71928436 0.042310845 0.08462169
000060 73 68 6d 72 66 76 6a 6b 6a 71 7b 71 69 6c 60 65
       0.21155423 -0.25386506 -0.042310845 0.16924338 -0.33848676 0.33848676 -0.16924338 -0.12693253 -0.16924338 0.12693253 0.55004096 0.12693253 -0.21155423 -0.08462169 -0.59235185 -0.3807976
000070 7b 6f 5b 70 71 6b 67 68 73 69 6a 63 62 68 74 6f
       0.55004096 0.042310845 -0.8039061 0.08462169 0.12693253 -0.12693253 -0.29617593 -0.25386506 0.21155423 -0.21155423 -0.16924338 -0.4654193 -0.5077301 -0.25386506 0.25386506 0.042310845
000080 71 6b 5f 64 71 80 62 73 5f 6f 6c 63 6c 63 69 5f
       0.12693253 -0.12693253 -0.6346627 -0.42310846 0.12693253 0.7615952 -0.5077301 0.21155423 -0.6346627 0.042310845 -0.08462169 -0.4654193 -0.08462169 -0.4654193 -0.21155423 -0.6346627
000090 46 7f 73 6d 6a 82 70 6b 7f 73 76 7e 88 70 6d 6b
       -1.6924338 0.71928436 0.21155423 -0.042310845 -0.16924338 0.8462169 0.08462169 -0.12693253 0.71928436 0.21155423 0.33848676 0.6769735 1.1000819 0.08462169 -0.042310845 -0.12693253
0000a0 6d 5e 75 74 6d 7f 6c 7e 7b 5d 73 77 77 70 70 67
       -0.042310845 -0.6769735 0.29617593 0.25386506 -0.042310845 0.71928436 -0.08462169 0.6769735 0.55004096 -0.71928436 0.21155423 0.3807976 0.3807976 0.08462169 0.08462169 -0.29617593
0000b0 6c 6a 6f 7e 68 74 70 6f 6d 82 6e 73 74 77 77 68
       -0.08462169 -0.16924338 0.042310845 0.6769735 -0.25386506 0.25386506 0.08462169 0.042310845 -0.042310845 0.8462169 0.0 0.21155423 0.25386506 0.3807976 0.3807976 -0.25386506
0000c0 80 6a 65 6d 73 77 66 6d 74 71 3c 58 75 67 76 71
       0.7615952 -0.16924338 -0.3807976 -0.042310845 0.21155423 0.3807976 -0.33848676 -0.042310845 0.25386506 0.12693253 -2.1155422 -0.9308386 0.29617593 -0.29617593 0.33848676 0.12693253
0000d0 70 88 70 6a 70 66 6e 6c 6b 8c 6e 5e 70 6e 6c 73
       0.08462169 1.1000819 0.08462169 -0.16924338 0.08462169 -0.33848676 0.0 -0.08462169 -0.12693253 1.2693254 0.0 -0.6769735 0.08462169 0.0 -0.08462169 0.21155423
0000e0 6a 6c 6e 71 6f 71 71 72 73 72 8b 6d 84 68 7e 71
       -0.16924338 -0.08462169 0.0 0.12693253 0.042310845 0.12693253 0.12693253 0.16924338 0.21155423 0.16924338 1.2270145 -0.042310845 0.9308386 -0.25386506 0.6769735 0.12693253
0000f0 69 88 72 61 6c 67 79 6a 6f 4e 6b 68 75 7d 6e 71
       -0.21155423 1.1000819 0.16924338 -0.55004096 -0.08462169 -0.29617593 0.4654193 -0.16924338 0.042310845 -1.353947 -0.12693253 -0.25386506 0.29617593 0.6346627 0.0 0.12693253

MobilenetV2/expanded_conv_12/expand/weights_quant/FakeQuantWithMinMaxVars u1 [288, 1, 1, 48] scale=0.0014329617 zero_point=135
000000 80 80 4a 97 84 cf 84 8e 9c 91 67 7b 8d 69 9b 7f
       -0.010030732 -0.010030732 -0.08741066 0.022927387 -0.004298885 0.10317324 -0.004298885 0.010030732 0.030092195 0.014329617 -0.045854773 -0.01719554 0.00859777 -0.04298885 0.028659234 -0.011463693
000010 5c 5d a6 a1 84 89 6a 78 86 91 9d 88 a8 d2 93 87
       -0.061617352 -0.06018439 0.04442181 0.037257005 -0.004298885 0.0028659233 -0.04155589 -0.021494426 -0.0014329617 0.014329617 0.031525157 0.0014329617 0.047287736 0.10747212 0.01719554 0.0
000020 a2 77 9a 92 7d 93 86 80 83 84 ab a0 b6 8b 42 c4
       0.038689964 -0.022927387 0.027226271 0.015762579 -0.014329617 0.01719554 -0.0014329617 -0.010030732 -0.0057318467 -0.004298885 0.05158662 0.03582404 0.067349195 0.0057318467 -0.09887435 0.08741066
000030 95 96 88 73 6c 82 70 93 89 8d 63 88 99 7c 8f 81
       0.020061463 0.021494426 0.0014329617 -0.028659234 -0.038689964 -0.0071648085 -0.03295812 0.01719554 0.0028659233 0.00859777 -0.05158662 0.0014329617 0.02579331 -0.015762579 0.011463693 -0.00859777
000040 a8 8a 67 93 92 8a 8a a3 7c 81 7d 82 65 98 b1 9f
       0.047287736 0.004298885 -0.045854773 0.01719554 0.015762579 0.004298885 0.004298885 0.040122926 -0.015762579 -0.00859777 -0.014329617 -0.0071648085 -0.048720695 0.024360348 0.06018439 0.03439108
000050 af 60 78 8a 88 7d 94 84 7b 83 8f 5d 89 92 8e 70
       0.057318468 -0.055885505 -0.021494426 0.004298885 0.0014329617 -0.014329617 0.018628502 -0.004298885 -0.01719554 -0.0057318467 0.011463693 -0.06018439 0.0028659233 0.015762579 0.010030732 -0.03295812
000060 b1 93 b5 87 9a 64 b2 38 83 ad 72 8d ab 8a 7c 8d
       0.06018439 0.01719554 0.06591624 0.0 0.027226271 -0.050153658 0.061617352 -0.11320397 -0.0057318467 0.054452542 -0.030092195 0.00859777 0.05158662 0.004298885 -0.015762579 0.00859777
000070 6b 93 8d 7b 92 8d 7c a2 9f 7a 62 82 9e 64 af 84
       -0.040122926 0.01719554 0.00859777 -0.01719554 0.015762579 0.00859777 -0.015762579 0.038689964 0.03439108 -0.018628502 -0.053019583 -0.0071648085 0.03295812 -0.050153658 0.057318468 -0.004298885
000080 9d 9f 4c 8f a1 8a 95 93 57 6a 92 a4 a2 8f 74 34
       0.031525157 0.03439108 -0.08454474 0.011463693 0.037257005 0.004298885 0.020061463 0.01719554 -0.06878216 -0.04155589 0.015762579 0.04155589 0.038689964 0.011463693 -0.027226271 -0.118935816
000090 99 87 7b 8d 80 82 73 7b 8e 84 84 88 8c 86 84 8f
       0.02579331 0.0 -0.01719554 0.00859777 -0.010030732 -0.0071648085 -0.028659234 -0.01719554 0.010030732 -0.004298885 -0.004298885 0.0014329617 0.0071648085 -0.0014329617 -0.004298885 0.011463693
0000a0 7d 81 83 8f 8c 88 7a 88 7c 89 87 8b 86 8a 88 86
       -0.014329617 -0.00859777 -0.0057318467 0.011463693 0.0071648085 0.0014329617 -0.018628502 0.0014329617 -0.015762579 0.0028659233 0.0 0.0057318467 -0.0014329617 0.004298885 0.0014329617 -0.0014329617
0000b0 87 89 7b 88 8b 8b 90 8e 88 80 92 87 8f 7d 8e 74
       0.0 0.0028659233 -0.01719554 0.0014329617 0.0057318467 0.0057318467 0.012896655 0.010030732 0.0014329617 -0.010030732 0.015762579 0.0 0.011463693 -0.014329617 0.010030732 -0.027226271
0000c0 5d 83 4b 6e 66 a7 4e 8b 9d 95 6e a9 89 8e a5 7a
       -0.06018439 -0.0057318467 -0.0859777 -0.03582404 -0.047287736 0.045854773 -0.081678815 0.0057318467 0.031525157 0.020061463 -0.03582404 0.048720695 0.0028659233 0.010030732 0.04298885 -0.018628502
0000d0 64 ac 88 8a af 9e 92 a0 5f 70 7e 7c 75 a4 6a 78
       -0.050153658 0.053019583 0.0014329617 0.004298885 0.057318468 0.03295812 0.015762579 0.03582404 -0.057318468 -0.03295812 -0.012896655 -0.015762579 -0.02579331 0.04155589 -0.04155589 -0.021494426
0000e0 7f a7 6d a4 9d 93 80 63 7d a3 84 81 77 83 96 8c
       -0.011463693 0.045854773 -0.037257005 0.04155589 0.031525157 0.01719554 -0.010030732 -0.05158662 -0.014329617 0.040122926 -0.004298885 -0.00859777 -0.022927387 -0.0057318467 0.021494426 0.0071648085
0000f0 9c 80 a5 91 bc 83 64 9e 82 87 82 8c b4 72 9a aa
       0.030092195 -0.010030732 0.04298885 0.014329617 0.07594697 -0.0057318467 -0.050153658 0.03295812 -0.0071648085 0.0 -0.0071648085 0.0071648085 0.06448328 -0.030092195 0.027226271 0.050153658
